…
14: /usr/local/lib/python3.12/dist-packages/transformer_engine/common/recipe/__init__.py:153: DeprecationWarning: `interval` argument is deprecated and unused. It will be removed in an upcoming release.
14:   warnings.warn(
 9: /usr/local/lib/python3.12/dist-packages/transformer_engine/common/recipe/__init__.py:153: DeprecationWarning: `interval` argument is deprecated and unused. It will be removed in an upcoming release.
 9:   warnings.warn(
12: BertForPreTrainingSegmented(
12:   (bert_model_segment): BertForPreTrainingModelOnly(
12:     (bert): BertModel(
12:       (embeddings): BertEmbeddings(
12:         (word_embeddings): Embedding(30528, 1024)
12:         (position_embeddings): Embedding(512, 1024)
12:         (token_type_embeddings): Embedding(2, 1024)
12:         (LayerNorm): FastLayerNorm()
12:         (dropout): Dropout(p=0.1, inplace=False)
12:       )
12:       (encoder): BertEncoder(
12:         (layer): ModuleList(
12:           (0-23): 24 x BertTransformerLayer2(
12:             (attention): FP8_MHA()
12:             (layernorm_mlp): LayerNormMLP()
12:             (output_LayerNorm): FastLayerNorm()
12:           )
12:         )
12:       )
12:       (pooler): BertPooler(
12:         (dense): Linear(in_features=1024, out_features=1024, bias=True)
12:         (activation): Tanh()
12:       )
12:     )
12:   )
12:   (heads_only_segment): BertForPreTrainingHeadsOnly(
12:     (cls): BertPreTrainingHeads(
12:       (predictions): BertLMPredictionHead(
12:         (transform): BertPredictionHeadTransform(
12:           (dense): Linear(in_features=1024, out_features=1024, bias=True)
12:           (LayerNorm): FastLayerNorm()
12:         )
12:         (decoder): Linear(in_features=1024, out_features=30528, bias=False)
12:       )
12:       (seq_relationship): Linear(in_features=1024, out_features=2, bias=True)
12:     )
12:   )
12: )
15: BertForPreTrainingSegmented(
15:   (bert_model_segment): BertForPreTrainingModelOnly(
15:     (bert): BertModel(
15:       (embeddings): BertEmbeddings(
15:         (word_embeddings): Embedding(30528, 1024)
15:         (position_embeddings): Embedding(512, 1024)
15:         (token_type_embeddings): Embedding(2, 1024)
15:         (LayerNorm): FastLayerNorm()
15:         (dropout): Dropout(p=0.1, inplace=False)
15:       )
15:       (encoder): BertEncoder(
15:         (layer): ModuleList(
15:           (0-23): 24 x BertTransformerLayer2(
15:             (attention): FP8_MHA()
15:             (layernorm_mlp): LayerNormMLP()
15:             (output_LayerNorm): FastLayerNorm()
15:           )
15:         )
15:       )
15:       (pooler): BertPooler(
15:         (dense): Linear(in_features=1024, out_features=1024, bias=True)
15:         (activation): Tanh()
15:       )
15:     )
15:   )
15:   (heads_only_segment): BertForPreTrainingHeadsOnly(
15:     (cls): BertPreTrainingHeads(
15:       (predictions): BertLMPredictionHead(
15:         (transform): BertPredictionHeadTransform(
15:           (dense): Linear(in_features=1024, out_features=1024, bias=True)
15:           (LayerNorm): FastLayerNorm()
15:         )
15:         (decoder): Linear(in_features=1024, out_features=30528, bias=False)
15:       )
15:       (seq_relationship): Linear(in_features=1024, out_features=2, bias=True)
15:     )
15:   )
15: )
 8: BertForPreTrainingSegmented(
 8:   (bert_model_segment): BertForPreTrainingModelOnly(
 8:     (bert): BertModel(
 8:       (embeddings): BertEmbeddings(
 8:         (word_embeddings): Embedding(30528, 1024)
 8:         (position_embeddings): Embedding(512, 1024)
 8:         (token_type_embeddings): Embedding(2, 1024)
 8:         (LayerNorm): FastLayerNorm()
 8:         (dropout): Dropout(p=0.1, inplace=False)
 8:       )
 8:       (encoder): BertEncoder(
 8:         (layer): ModuleList(
 8:           (0-23): 24 x BertTransformerLayer2(
 8:             (attention): FP8_MHA()
 8:             (layernorm_mlp): LayerNormMLP()
 8:             (output_LayerNorm): FastLayerNorm()
 8:           )
 8:         )
 8:       )
 8:       (pooler): BertPooler(
 8:         (dense): Linear(in_features=1024, out_features=1024, bias=True)
 8:         (activation): Tanh()
 8:       )
 8:     )
 8:   )
 8:   (heads_only_segment): BertForPreTrainingHeadsOnly(
 8:     (cls): BertPreTrainingHeads(
 8:       (predictions): BertLMPredictionHead(
 8:         (transform): BertPredictionHeadTransform(
 8:           (dense): Linear(in_features=1024, out_features=1024, bias=True)
 8:           (LayerNorm): FastLayerNorm()
 8:         )
 8:         (decoder): Linear(in_features=1024, out_features=30528, bias=False)
 8:       )
 8:       (seq_relationship): Linear(in_features=1024, out_features=2, bias=True)
 8:     )
 8:   )
 8: )
 9: BertForPreTrainingSegmented(
 9:   (bert_model_segment): BertForPreTrainingModelOnly(
 9:     (bert): BertModel(
 9:       (embeddings): BertEmbeddings(
 9:         (word_embeddings): Embedding(30528, 1024)
 9:         (position_embeddings): Embedding(512, 1024)
 9:         (token_type_embeddings): Embedding(2, 1024)
 9:         (LayerNorm): FastLayerNorm()
 9:         (dropout): Dropout(p=0.1, inplace=False)
 9:       )
 9:       (encoder): BertEncoder(
 9:         (layer): ModuleList(
 9:           (0-23): 24 x BertTransformerLayer2(
 9:             (attention): FP8_MHA()
 9:             (layernorm_mlp): LayerNormMLP()
 9:             (output_LayerNorm): FastLayerNorm()
 9:           )
 9:         )
 9:       )
 9:       (pooler): BertPooler(
 9:         (dense): Linear(in_features=1024, out_features=1024, bias=True)
 9:         (activation): Tanh()
 9:       )
 9:     )
 9:   )
 9:   (heads_only_segment): BertForPreTrainingHeadsOnly(
 9:     (cls): BertPreTrainingHeads(
 9:       (predictions): BertLMPredictionHead(
 9:         (transform): BertPredictionHeadTransform(
 9:           (dense): Linear(in_features=1024, out_features=1024, bias=True)
 9:           (LayerNorm): FastLayerNorm()
 9:         )
 9:         (decoder): Linear(in_features=1024, out_features=30528, bias=False)
 9:       )
 9:       (seq_relationship): Linear(in_features=1024, out_features=2, bias=True)
 9:     )
 9:   )
 9: )
10: BertForPreTrainingSegmented(
10:   (bert_model_segment): BertForPreTrainingModelOnly(
10:     (bert): BertModel(
10:       (embeddings): BertEmbeddings(
10:         (word_embeddings): Embedding(30528, 1024)
10:         (position_embeddings): Embedding(512, 1024)
10:         (token_type_embeddings): Embedding(2, 1024)
10:         (LayerNorm): FastLayerNorm()
10:         (dropout): Dropout(p=0.1, inplace=False)
10:       )
10:       (encoder): BertEncoder(
10:         (layer): ModuleList(
10:           (0-23): 24 x BertTransformerLayer2(
10:             (attention): FP8_MHA()
10:             (layernorm_mlp): LayerNormMLP()
10:             (output_LayerNorm): FastLayerNorm()
10:           )
10:         )
10:       )
10:       (pooler): BertPooler(
10:         (dense): Linear(in_features=1024, out_features=1024, bias=True)
10:         (activation): Tanh()
10:       )
10:     )
10:   )
10:   (heads_only_segment): BertForPreTrainingHeadsOnly(
10:     (cls): BertPreTrainingHeads(
10:       (predictions): BertLMPredictionHead(
10:         (transform): BertPredictionHeadTransform(
10:           (dense): Linear(in_features=1024, out_features=1024, bias=True)
10:           (LayerNorm): FastLayerNorm()
10:         )
10:         (decoder): Linear(in_features=1024, out_features=30528, bias=False)
10:       )
10:       (seq_relationship): Linear(in_features=1024, out_features=2, bias=True)
10:     )
10:   )
10: )
13: BertForPreTrainingSegmented(
13:   (bert_model_segment): BertForPreTrainingModelOnly(
13:     (bert): BertModel(
13:       (embeddings): BertEmbeddings(
13:         (word_embeddings): Embedding(30528, 1024)
13:         (position_embeddings): Embedding(512, 1024)
13:         (token_type_embeddings): Embedding(2, 1024)
13:         (LayerNorm): FastLayerNorm()
13:         (dropout): Dropout(p=0.1, inplace=False)
13:       )
13:       (encoder): BertEncoder(
13:         (layer): ModuleList(
13:           (0-23): 24 x BertTransformerLayer2(
13:             (attention): FP8_MHA()
13:             (layernorm_mlp): LayerNormMLP()
13:             (output_LayerNorm): FastLayerNorm()
13:           )
13:         )
13:       )
13:       (pooler): BertPooler(
13:         (dense): Linear(in_features=1024, out_features=1024, bias=True)
13:         (activation): Tanh()
13:       )
13:     )
13:   )
13:   (heads_only_segment): BertForPreTrainingHeadsOnly(
13:     (cls): BertPreTrainingHeads(
13:       (predictions): BertLMPredictionHead(
13:         (transform): BertPredictionHeadTransform(
13:           (dense): Linear(in_features=1024, out_features=1024, bias=True)
13:           (LayerNorm): FastLayerNorm()
13:         )
13:         (decoder): Linear(in_features=1024, out_features=30528, bias=False)
13:       )
13:       (seq_relationship): Linear(in_features=1024, out_features=2, bias=True)
13:     )
13:   )
13: )
14: BertForPreTrainingSegmented(
14:   (bert_model_segment): BertForPreTrainingModelOnly(
14:     (bert): BertModel(
14:       (embeddings): BertEmbeddings(
14:         (word_embeddings): Embedding(30528, 1024)
14:         (position_embeddings): Embedding(512, 1024)
14:         (token_type_embeddings): Embedding(2, 1024)
14:         (LayerNorm): FastLayerNorm()
14:         (dropout): Dropout(p=0.1, inplace=False)
14:       )
14:       (encoder): BertEncoder(
14:         (layer): ModuleList(
14:           (0-23): 24 x BertTransformerLayer2(
14:             (attention): FP8_MHA()
14:             (layernorm_mlp): LayerNormMLP()
14:             (output_LayerNorm): FastLayerNorm()
14:           )
14:         )
14:       )
14:       (pooler): BertPooler(
14:         (dense): Linear(in_features=1024, out_features=1024, bias=True)
14:         (activation): Tanh()
14:       )
14:     )
14:   )
14:   (heads_only_segment): BertForPreTrainingHeadsOnly(
14:     (cls): BertPreTrainingHeads(
14:       (predictions): BertLMPredictionHead(
14:         (transform): BertPredictionHeadTransform(
14:           (dense): Linear(in_features=1024, out_features=1024, bias=True)
14:           (LayerNorm): FastLayerNorm()
14:         )
14:         (decoder): Linear(in_features=1024, out_features=30528, bias=False)
14:       )
14:       (seq_relationship): Linear(in_features=1024, out_features=2, bias=True)
14:     )
14:   )
14: )
11: BertForPreTrainingSegmented(
11:   (bert_model_segment): BertForPreTrainingModelOnly(
11:     (bert): BertModel(
11:       (embeddings): BertEmbeddings(
11:         (word_embeddings): Embedding(30528, 1024)
11:         (position_embeddings): Embedding(512, 1024)
11:         (token_type_embeddings): Embedding(2, 1024)
11:         (LayerNorm): FastLayerNorm()
11:         (dropout): Dropout(p=0.1, inplace=False)
11:       )
11:       (encoder): BertEncoder(
11:         (layer): ModuleList(
11:           (0-23): 24 x BertTransformerLayer2(
11:             (attention): FP8_MHA()
11:             (layernorm_mlp): LayerNormMLP()
11:             (output_LayerNorm): FastLayerNorm()
11:           )
11:         )
11:       )
11:       (pooler): BertPooler(
11:         (dense): Linear(in_features=1024, out_features=1024, bias=True)
11:         (activation): Tanh()
11:       )
11:     )
11:   )
11:   (heads_only_segment): BertForPreTrainingHeadsOnly(
11:     (cls): BertPreTrainingHeads(
11:       (predictions): BertLMPredictionHead(
11:         (transform): BertPredictionHeadTransform(
11:           (dense): Linear(in_features=1024, out_features=1024, bias=True)
11:           (LayerNorm): FastLayerNorm()
11:         )
11:         (decoder): Linear(in_features=1024, out_features=30528, bias=False)
11:       )
11:       (seq_relationship): Linear(in_features=1024, out_features=2, bias=True)
11:     )
11:   )
11: )
 0: :::MLLOG {"namespace": "", "time_ms": 1746133813193, "event_type": "POINT_IN_TIME", "key": "weights_initialization", "value": null, "metadata": {"file": "/workspace/bert/run_pretraining.py", "lineno": 954, "tensor": "bert/embeddings/word_embeddings"}}
 0: :::MLLOG {"namespace": "", "time_ms": 1746133813193, "event_type": "POINT_IN_TIME", "key": "weights_initialization", "value": null, "metadata": {"file": "/workspace/bert/run_pretraining.py", "lineno": 954, "tensor": "bert/embeddings/position_embeddings"}}
…
 0: :::MLLOG {"namespace": "", "time_ms": 1746133813194, "event_type": "POINT_IN_TIME", "key": "weights_initialization", "value": null, "metadata": {"file": "/workspace/bert/run_pretraining.py", "lineno": 954, "tensor": "bert/encoder/layer_0/attention/self/key/kernel"}}
 0: :::MLLOG {"namespace": "", "time_ms": 1746133813194, "event_type": "POINT_IN_TIME", "key": "weights_initialization", "value": null, "metadata": {"file": "/workspace/bert/run_pretraining.py", "lineno": 954, "tensor": "bert/encoder/layer_0/attention/self/key/bias"}}
 6: BertForPreTrainingSegmented(
 6:   (bert_model_segment): BertForPreTrainingModelOnly(
 6:     (bert): BertModel(
 6:       (embeddings): BertEmbeddings(
 6:         (word_embeddings): Embedding(30528, 1024)
 6:         (position_embeddings): Embedding(512, 1024)
 6:         (token_type_embeddings): Embedding(2, 1024)
 6:         (LayerNorm): FastLayerNorm()
 6:         (dropout): Dropout(p=0.1, inplace=False)
 6:       )
 6:       (encoder): BertEncoder(
 6:         (layer): ModuleList(
 6:           (0-23): 24 x BertTransformerLayer2(
 6:             (attention): FP8_MHA()
 6:             (layernorm_mlp): LayerNormMLP()
 6:             (output_LayerNorm): FastLayerNorm()
 6:           )
 6:         )
 6:       )
 6:       (pooler): BertPooler(
 6:         (dense): Linear(in_features=1024, out_features=1024, bias=True)
 6:         (activation): Tanh()
 6:       )
 6:     )
 6:   )
 6:   (heads_only_segment): BertForPreTrainingHeadsOnly(
 6:     (cls): BertPreTrainingHeads(
 6:       (predictions): BertLMPredictionHead(
 6:         (transform): BertPredictionHeadTransform(
 6:           (dense): Linear(in_features=1024, out_features=1024, bias=True)
 6:           (LayerNorm): FastLayerNorm()
 6:         )
 6:         (decoder): Linear(in_features=1024, out_features=30528, bias=False)
 6:       )
 6:       (seq_relationship): Linear(in_features=1024, out_features=2, bias=True)
 6:     )
 6:   )
 6: )
 5: BertForPreTrainingSegmented(
 5:   (bert_model_segment): BertForPreTrainingModelOnly(
 5:     (bert): BertModel(
 5:       (embeddings): BertEmbeddings(
 5:         (word_embeddings): Embedding(30528, 1024)
 5:         (position_embeddings): Embedding(512, 1024)
 5:         (token_type_embeddings): Embedding(2, 1024)
 5:         (LayerNorm): FastLayerNorm()
 5:         (dropout): Dropout(p=0.1, inplace=False)
 5:       )
 5:       (encoder): BertEncoder(
 5:         (layer): ModuleList(
 5:           (0-23): 24 x BertTransformerLayer2(
 5:             (attention): FP8_MHA()
 5:             (layernorm_mlp): LayerNormMLP()
 5:             (output_LayerNorm): FastLayerNorm()
 5:           )
 5:         )
 5:       )
 5:       (pooler): BertPooler(
 5:         (dense): Linear(in_features=1024, out_features=1024, bias=True)
 5:         (activation): Tanh()
 5:       )
 5:     )
 5:   )
 5:   (heads_only_segment): BertForPreTrainingHeadsOnly(
 5:     (cls): BertPreTrainingHeads(
 5:       (predictions): BertLMPredictionHead(
 5:         (transform): BertPredictionHeadTransform(
 5:           (dense): Linear(in_features=1024, out_features=1024, bias=True)
 5:           (LayerNorm): FastLayerNorm()
 5:         )
 5:         (decoder): Linear(in_features=1024, out_features=30528, bias=False)
 5:       )
 5:       (seq_relationship): Linear(in_features=1024, out_features=2, bias=True)
 5:     )
 5:   )
 4: BertForPreTrainingSegmented(
 4:   (bert_model_segment): BertForPreTrainingModelOnly(
 4:     (bert): BertModel(
 4:       (embeddings): BertEmbeddings(
 4:         (word_embeddings): Embedding(30528, 1024)
 4:         (position_embeddings): Embedding(512, 1024)
 4:         (token_type_embeddings): Embedding(2, 1024)
 4:         (LayerNorm): FastLayerNorm()
 4:         (dropout): Dropout(p=0.1, inplace=False)
 4:       )
 4:       (encoder): BertEncoder(
 4:         (layer): ModuleList(
 4:           (0-23): 24 x BertTransformerLayer2(
 4:             (attention): FP8_MHA()
 4:             (layernorm_mlp): LayerNormMLP()
 4:             (output_LayerNorm): FastLayerNorm()
 4:           )
 4:         )
 4:       )
 4:       (pooler): BertPooler(
 4:         (dense): Linear(in_features=1024, out_features=1024, bias=True)
 4:         (activation): Tanh()
 4:       )
 4:     )
 4:   )
 4:   (heads_only_segment): BertForPreTrainingHeadsOnly(
 4:     (cls): BertPreTrainingHeads(
 4:       (predictions): BertLMPredictionHead(
 4:         (transform): BertPredictionHeadTransform(
 4:           (dense): Linear(in_features=1024, out_features=1024, bias=True)
 4:           (LayerNorm): FastLayerNorm()
 4:         )
 4:         (decoder): Linear(in_features=1024, out_features=30528, bias=False)
 4:       )
 4:       (seq_relationship): Linear(in_features=1024, out_features=2, bias=True)
 4:     )
 4:   )
 4: )
 5: )
 0: :::MLLOG {"namespace": "", "time_ms": 1746133813194, "event_type": "POINT_IN_TIME", "key": "weights_initialization", "value": null, "metadata": {"file": "/workspace/bert/run_pretraining.py", "lineno": 954, "tensor": "bert/encoder/layer_0/attention/self/value/kernel"}}
 0: :::MLLOG {"namespace": "", "time_ms": 1746133813194, "event_type": "POINT_IN_TIME", "key": "weights_initialization", "value": null, "metadata": {"file": "/workspace/bert/run_pretraining.py", "lineno": 954, "tensor": "bert/encoder/layer_0/attention/self/value/bias"}}
 2: BertForPreTrainingSegmented(
 2:   (bert_model_segment): BertForPreTrainingModelOnly(
 2:     (bert): BertModel(
 2:       (embeddings): BertEmbeddings(
 2:         (word_embeddings): Embedding(30528, 1024)
 2:         (position_embeddings): Embedding(512, 1024)
 2:         (token_type_embeddings): Embedding(2, 1024)
 2:         (LayerNorm): FastLayerNorm()
 2:         (dropout): Dropout(p=0.1, inplace=False)
 2:       )
 2:       (encoder): BertEncoder(
 2:         (layer): ModuleList(
 2:           (0-23): 24 x BertTransformerLayer2(
 2:             (attention): FP8_MHA()
 2:             (layernorm_mlp): LayerNormMLP()
 2:             (output_LayerNorm): FastLayerNorm()
 2:           )
 2:         )
 2:       )
 2:       (pooler): BertPooler(
 2:         (dense): Linear(in_features=1024, out_features=1024, bias=True)
 2:         (activation): Tanh()
 2:       )
 2:     )
 2:   )
 2:   (heads_only_segment): BertForPreTrainingHeadsOnly(
 2:     (cls): BertPreTrainingHeads(
 2:       (predictions): BertLMPredictionHead(
 2:         (transform): BertPredictionHeadTransform(
 2:           (dense): Linear(in_features=1024, out_features=1024, bias=True)
 2:           (LayerNorm): FastLayerNorm()
 2:         )
 2:         (decoder): Linear(in_features=1024, out_features=30528, bias=False)
 2:       )
 2:       (seq_relationship): Linear(in_features=1024, out_features=2, bias=True)
 2:     )
 2:   )
 2: )
 7: BertForPreTrainingSegmented(
 7:   (bert_model_segment): BertForPreTrainingModelOnly(
 7:     (bert): BertModel(
 7:       (embeddings): BertEmbeddings(
 7:         (word_embeddings): Embedding(30528, 1024)
 7:         (position_embeddings): Embedding(512, 1024)
 7:         (token_type_embeddings): Embedding(2, 1024)
 7:         (LayerNorm): FastLayerNorm()
 7:         (dropout): Dropout(p=0.1, inplace=False)
 7:       )
 7:       (encoder): BertEncoder(
 7:         (layer): ModuleList(
 7:           (0-23): 24 x BertTransformerLayer2(
 7:             (attention): FP8_MHA()
 7:             (layernorm_mlp): LayerNormMLP()
 7:             (output_LayerNorm): FastLayerNorm()
 7:           )
 7:         )
 7:       )
 7:       (pooler): BertPooler(
 7:         (dense): Linear(in_features=1024, out_features=1024, bias=True)
 7:         (activation): Tanh()
 7:       )
 7:     )
 7:   )
 7:   (heads_only_segment): BertForPreTrainingHeadsOnly(
 7:     (cls): BertPreTrainingHeads(
 7:       (predictions): BertLMPredictionHead(
 7:         (transform): BertPredictionHeadTransform(
 7:           (dense): Linear(in_features=1024, out_features=1024, bias=True)
 7:           (LayerNorm): FastLayerNorm()
 7:         )
 7:         (decoder): Linear(in_features=1024, out_features=30528, bias=False)
 7:       )
 7:       (seq_relationship): Linear(in_features=1024, out_features=2, bias=True)
 7:     )
 7:   )
 7: )
 0: :::MLLOG {"namespace": "", "time_ms": 1746133813194, "event_type": "POINT_IN_TIME", "key": "weights_initialization", "value": null, "metadata": {"file": "/workspace/bert/run_pretraining.py", "lineno": 954, "tensor": "bert/encoder/layer_0/attention/output/dense/kernel"}}
 3: BertForPreTrainingSegmented(
 3:   (bert_model_segment): BertForPreTrainingModelOnly(
 3:     (bert): BertModel(
 3:       (embeddings): BertEmbeddings(
 3:         (word_embeddings): Embedding(30528, 1024)
 3:         (position_embeddings): Embedding(512, 1024)
 3:         (token_type_embeddings): Embedding(2, 1024)
 3:         (LayerNorm): FastLayerNorm()
 3:         (dropout): Dropout(p=0.1, inplace=False)
 3:       )
 3:       (encoder): BertEncoder(
 3:         (layer): ModuleList(
 3:           (0-23): 24 x BertTransformerLayer2(
 3:             (attention): FP8_MHA()
 3:             (layernorm_mlp): LayerNormMLP()
 3:             (output_LayerNorm): FastLayerNorm()
 3:           )
 3:         )
 3:       )
 3:       (pooler): BertPooler(
 3:         (dense): Linear(in_features=1024, out_features=1024, bias=True)
 3:         (activation): Tanh()
 3:       )
 3:     )
 3:   )
 3:   (heads_only_segment): BertForPreTrainingHeadsOnly(
 3:     (cls): BertPreTrainingHeads(
 3:       (predictions): BertLMPredictionHead(
 3:         (transform): BertPredictionHeadTransform(
 3:           (dense): Linear(in_features=1024, out_features=1024, bias=True)
 3:           (LayerNorm): FastLayerNorm()
 3:         )
 3:         (decoder): Linear(in_features=1024, out_features=30528, bias=False)
 3:       )
 3:       (seq_relationship): Linear(in_features=1024, out_features=2, bias=True)
 3:     )
 3:   )
 3: )
 0: :::MLLOG {"namespace": "", "time_ms": 1746133813194, "event_type": "POINT_IN_TIME", "key": "weights_initialization", "value": null, "metadata": {"file": "/workspace/bert/run_pretraining.py", "lineno": 954, "tensor": "bert/encoder/layer_0/attention/output/dense/bias"}}
 0: :::MLLOG {"namespace": "", "time_ms": 1746133813194, "event_type": "POINT_IN_TIME", "key": "weights_initialization", "value": null, "metadata": {"file": "/workspace/bert/run_pretraining.py", "lineno": 954, "tensor": "bert/encoder/layer_0/attention/output/LayerNorm/gamma"}}
 1: BertForPreTrainingSegmented(
 1:   (bert_model_segment): BertForPreTrainingModelOnly(
 1:     (bert): BertModel(
 1:       (embeddings): BertEmbeddings(
 1:         (word_embeddings): Embedding(30528, 1024)
 1:         (position_embeddings): Embedding(512, 1024)
 1:         (token_type_embeddings): Embedding(2, 1024)
 1:         (LayerNorm): FastLayerNorm()
 1:         (dropout): Dropout(p=0.1, inplace=False)
 1:       )
 1:       (encoder): BertEncoder(
 1:         (layer): ModuleList(
 1:           (0-23): 24 x BertTransformerLayer2(
 1:             (attention): FP8_MHA()
 1:             (layernorm_mlp): LayerNormMLP()
 1:             (output_LayerNorm): FastLayerNorm()
 1:           )
 1:         )
 1:       )
 1:       (pooler): BertPooler(
 1:         (dense): Linear(in_features=1024, out_features=1024, bias=True)
 1:         (activation): Tanh()
 1:       )
 1:     )
 1:   )
 1:   (heads_only_segment): BertForPreTrainingHeadsOnly(
 1:     (cls): BertPreTrainingHeads(
 1:       (predictions): BertLMPredictionHead(
 1:         (transform): BertPredictionHeadTransform(
 1:           (dense): Linear(in_features=1024, out_features=1024, bias=True)
 1:           (LayerNorm): FastLayerNorm()
 1:         )
 1:         (decoder): Linear(in_features=1024, out_features=30528, bias=False)
 1:       )
 1:       (seq_relationship): Linear(in_features=1024, out_features=2, bias=True)
 1:     )
 1:   )
 1: )
 0: :::MLLOG {"namespace": "", "time_ms": 1746133813194, "event_type": "POINT_IN_TIME", "key": "weights_initialization", "value": null, "metadata": {"file": "/workspace/bert/run_pretraining.py", "lineno": 954, "tensor": "bert/encoder/layer_0/attention/output/LayerNorm/beta"}}
 0: :::MLLOG {"namespace": "", "time_ms": 1746133813194, "event_type": "POINT_IN_TIME", "key": "weights_initialization", "value": null, "metadata": {"file": "/workspace/bert/run_pretraining.py", "lineno": 954, "tensor": "bert/encoder/layer_0/intermediate/dense/kernel"}}
…
 0: :::MLLOG {"namespace": "", "time_ms": 1746133813231, "event_type": "POINT_IN_TIME", "key": "weights_initialization", "value": null, "metadata": {"file": "/workspace/bert/run_pretraining.py", "lineno": 954, "tensor": "cls/seq_relationship/output_weights"}}
 0: :::MLLOG {"namespace": "", "time_ms": 1746133813231, "event_type": "POINT_IN_TIME", "key": "weights_initialization", "value": null, "metadata": {"file": "/workspace/bert/run_pretraining.py", "lineno": 954, "tensor": "cls/seq_relationship/output_bias"}}
 0: BertForPreTrainingSegmented(
 0:   (bert_model_segment): BertForPreTrainingModelOnly(
 0:     (bert): BertModel(
 0:       (embeddings): BertEmbeddings(
 0:         (word_embeddings): Embedding(30528, 1024)
 0:         (position_embeddings): Embedding(512, 1024)
 0:         (token_type_embeddings): Embedding(2, 1024)
 0:         (LayerNorm): FastLayerNorm()
 0:         (dropout): Dropout(p=0.1, inplace=False)
 0:       )
 0:       (encoder): BertEncoder(
 0:         (layer): ModuleList(
 0:           (0-23): 24 x BertTransformerLayer2(
 0:             (attention): FP8_MHA()
 0:             (layernorm_mlp): LayerNormMLP()
 0:             (output_LayerNorm): FastLayerNorm()
 0:           )
 0:         )
 0:       )
 0:       (pooler): BertPooler(
 0:         (dense): Linear(in_features=1024, out_features=1024, bias=True)
 0:         (activation): Tanh()
 0:       )
 0:     )
 0:   )
 0:   (heads_only_segment): BertForPreTrainingHeadsOnly(
 0:     (cls): BertPreTrainingHeads(
 0:       (predictions): BertLMPredictionHead(
 0:         (transform): BertPredictionHeadTransform(
 0:           (dense): Linear(in_features=1024, out_features=1024, bias=True)
 0:           (LayerNorm): FastLayerNorm()
 0:         )
 0:         (decoder): Linear(in_features=1024, out_features=30528, bias=False)
 0:       )
 0:       (seq_relationship): Linear(in_features=1024, out_features=2, bias=True)
 0:     )
 0:   )
 0: )
 9: /usr/local/lib/python3.12/dist-packages/apex/contrib/optimizers/distributed_fused_lamb.py:119: UserWarning: The torch.cuda.*DtypeTensor constructors are no longer recommended. It's best to use methods such as torch.tensor(data, dtype=*, device='cuda') to create tensors. (Triggered internally at /opt/pytorch/pytorch/torch/csrc/tensor/python_tensor.cpp:78.)
…
