…
0: :::MLLOG {"namespace": "", "time_ms": 1745770778643, "event_type": "POINT_IN_TIME", "key": "weights_initialization", "value": null, "metadata": {"file": "/workspace/bert/run_pretraining.py", "lineno": 954, "tensor": "bert/embeddings/LayerNorm/gamma"}}
0: :::MLLOG {"namespace": "", "time_ms": 1745770778643, "event_type": "POINT_IN_TIME", "key": "weights_initialization", "value": null, "metadata": {"file": "/workspace/bert/run_pretraining.py", "lineno": 954, "tensor": "bert/embeddings/LayerNorm/beta"}}
2: BertForPreTrainingSegmented(
2:   (bert_model_segment): BertForPreTrainingModelOnly(
2:     (bert): BertModel(
2:       (embeddings): BertEmbeddings(
2:         (word_embeddings): Embedding(30528, 1024)
2:         (position_embeddings): Embedding(512, 1024)
2:         (token_type_embeddings): Embedding(2, 1024)
2:         (LayerNorm): FastLayerNorm()
2:         (dropout): Dropout(p=0.1, inplace=False)
2:       )
2:       (encoder): BertEncoder(
2:         (layer): ModuleList(
2:           (0-23): 24 x BertTransformerLayer2(
2:             (attention): FP8_MHA()
2:             (layernorm_mlp): LayerNormMLP()
2:             (output_LayerNorm): FastLayerNorm()
2:           )
2:         )
2:       )
2:       (pooler): BertPooler(
2:         (dense): Linear(in_features=1024, out_features=1024, bias=True)
2:         (activation): Tanh()
2:       )
2:     )
2:   )
2:   (heads_only_segment): BertForPreTrainingHeadsOnly(
2:     (cls): BertPreTrainingHeads(
2:       (predictions): BertLMPredictionHead(
2:         (transform): BertPredictionHeadTransform(
2:           (dense): Linear(in_features=1024, out_features=1024, bias=True)
2:           (LayerNorm): FastLayerNorm()
2:         )
2:         (decoder): Linear(in_features=1024, out_features=30528, bias=False)
2:       )
2:       (seq_relationship): Linear(in_features=1024, out_features=2, bias=True)
2:     )
2:   )
2: )
0: :::MLLOG {"namespace": "", "time_ms": 1745770778643, "event_type": "POINT_IN_TIME", "key": "weights_initialization", "value": null, "metadata": {"file": "/workspace/bert/run_pretraining.py", "lineno": 954, "tensor": "bert/encoder/layer_0/attention/self/query/kernel"}}
0: :::MLLOG {"namespace": "", "time_ms": 1745770778643, "event_type": "POINT_IN_TIME", "key": "weights_initialization", "value": null, "metadata": {"file": "/workspace/bert/run_pretraining.py", "lineno": 954, "tensor": "bert/encoder/layer_0/attention/self/query/bias"}}
0: :::MLLOG {"namespace": "", "time_ms": 1745770778643, "event_type": "POINT_IN_TIME", "key": "weights_initialization", "value": null, "metadata": {"file": "/workspace/bert/run_pretraining.py", "lineno": 954, "tensor": "bert/encoder/layer_0/attention/self/key/kernel"}}
0: :::MLLOG {"namespace": "", "time_ms": 1745770778643, "event_type": "POINT_IN_TIME", "key": "weights_initialization", "value": null, "metadata": {"file": "/workspace/bert/run_pretraining.py", "lineno": 954, "tensor": "bert/encoder/layer_0/attention/self/key/bias"}}
3: BertForPreTrainingSegmented(
3:   (bert_model_segment): BertForPreTrainingModelOnly(
3:     (bert): BertModel(
3:       (embeddings): BertEmbeddings(
3:         (word_embeddings): Embedding(30528, 1024)
3:         (position_embeddings): Embedding(512, 1024)
3:         (token_type_embeddings): Embedding(2, 1024)
3:         (LayerNorm): FastLayerNorm()
3:         (dropout): Dropout(p=0.1, inplace=False)
3:       )
3:       (encoder): BertEncoder(
3:         (layer): ModuleList(
3:           (0-23): 24 x BertTransformerLayer2(
3:             (attention): FP8_MHA()
3:             (layernorm_mlp): LayerNormMLP()
3:             (output_LayerNorm): FastLayerNorm()
3:           )
3:         )
3:       )
3:       (pooler): BertPooler(
3:         (dense): Linear(in_features=1024, out_features=1024, bias=True)
3:         (activation): Tanh()
3:       )
3:     )
3:   )
3:   (heads_only_segment): BertForPreTrainingHeadsOnly(
3:     (cls): BertPreTrainingHeads(
3:       (predictions): BertLMPredictionHead(
3:         (transform): BertPredictionHeadTransform(
3:           (dense): Linear(in_features=1024, out_features=1024, bias=True)
3:           (LayerNorm): FastLayerNorm()
3:         )
3:         (decoder): Linear(in_features=1024, out_features=30528, bias=False)
3:       )
3:       (seq_relationship): Linear(in_features=1024, out_features=2, bias=True)
3:     )
3:   )
3: )
6: BertForPreTrainingSegmented(
6:   (bert_model_segment): BertForPreTrainingModelOnly(
6:     (bert): BertModel(
6:       (embeddings): BertEmbeddings(
6:         (word_embeddings): Embedding(30528, 1024)
6:         (position_embeddings): Embedding(512, 1024)
6:         (token_type_embeddings): Embedding(2, 1024)
6:         (LayerNorm): FastLayerNorm()
6:         (dropout): Dropout(p=0.1, inplace=False)
6:       )
6:       (encoder): BertEncoder(
6:         (layer): ModuleList(
6:           (0-23): 24 x BertTransformerLayer2(
6:             (attention): FP8_MHA()
6:             (layernorm_mlp): LayerNormMLP()
6:             (output_LayerNorm): FastLayerNorm()
6:           )
6:         )
6:       )
6:       (pooler): BertPooler(
6:         (dense): Linear(in_features=1024, out_features=1024, bias=True)
6:         (activation): Tanh()
6:       )
6:     )
6:   )
6:   (heads_only_segment): BertForPreTrainingHeadsOnly(
6:     (cls): BertPreTrainingHeads(
6:       (predictions): BertLMPredictionHead(
6:         (transform): BertPredictionHeadTransform(
6:           (dense): Linear(in_features=1024, out_features=1024, bias=True)
6:           (LayerNorm): FastLayerNorm()
6:         )
6:         (decoder): Linear(in_features=1024, out_features=30528, bias=False)
6:       )
6:       (seq_relationship): Linear(in_features=1024, out_features=2, bias=True)
6:     )
6:   )
6: )
7: BertForPreTrainingSegmented(
7:   (bert_model_segment): BertForPreTrainingModelOnly(
7:     (bert): BertModel(
7:       (embeddings): BertEmbeddings(
7:         (word_embeddings): Embedding(30528, 1024)
7:         (position_embeddings): Embedding(512, 1024)
7:         (token_type_embeddings): Embedding(2, 1024)
7:         (LayerNorm): FastLayerNorm()
7:         (dropout): Dropout(p=0.1, inplace=False)
7:       )
7:       (encoder): BertEncoder(
7:         (layer): ModuleList(
7:           (0-23): 24 x BertTransformerLayer2(
7:             (attention): FP8_MHA()
7:             (layernorm_mlp): LayerNormMLP()
7:             (output_LayerNorm): FastLayerNorm()
7:           )
7:         )
7:       )
7:       (pooler): BertPooler(
7:         (dense): Linear(in_features=1024, out_features=1024, bias=True)
7:         (activation): Tanh()
7:       )
7:     )
7:   )
7:   (heads_only_segment): BertForPreTrainingHeadsOnly(
7:     (cls): BertPreTrainingHeads(
7:       (predictions): BertLMPredictionHead(
7:         (transform): BertPredictionHeadTransform(
7:           (dense): Linear(in_features=1024, out_features=1024, bias=True)
7:           (LayerNorm): FastLayerNorm()
7:         )
7:         (decoder): Linear(in_features=1024, out_features=30528, bias=False)
7:       )
7:       (seq_relationship): Linear(in_features=1024, out_features=2, bias=True)
7:     )
7:   )
7: )
0: :::MLLOG {"namespace": "", "time_ms": 1745770778643, "event_type": "POINT_IN_TIME", "key": "weights_initialization", "value": null, "metadata": {"file": "/workspace/bert/run_pretraining.py", "lineno": 954, "tensor": "bert/encoder/layer_0/attention/self/value/kernel"}}
1: BertForPreTrainingSegmented(
1:   (bert_model_segment): BertForPreTrainingModelOnly(
1:     (bert): BertModel(
1:       (embeddings): BertEmbeddings(
1:         (word_embeddings): Embedding(30528, 1024)
1:         (position_embeddings): Embedding(512, 1024)
1:         (token_type_embeddings): Embedding(2, 1024)
1:         (LayerNorm): FastLayerNorm()
1:         (dropout): Dropout(p=0.1, inplace=False)
1:       )
1:       (encoder): BertEncoder(
1:         (layer): ModuleList(
1:           (0-23): 24 x BertTransformerLayer2(
1:             (attention): FP8_MHA()
1:             (layernorm_mlp): LayerNormMLP()
1:             (output_LayerNorm): FastLayerNorm()
1:           )
1:         )
1:       )
1:       (pooler): BertPooler(
1:         (dense): Linear(in_features=1024, out_features=1024, bias=True)
1:         (activation): Tanh()
1:       )
1:     )
1:   )
1:   (heads_only_segment): BertForPreTrainingHeadsOnly(
1:     (cls): BertPreTrainingHeads(
1:       (predictions): BertLMPredictionHead(
1:         (transform): BertPredictionHeadTransform(
1:           (dense): Linear(in_features=1024, out_features=1024, bias=True)
1:           (LayerNorm): FastLayerNorm()
1:         )
1:         (decoder): Linear(in_features=1024, out_features=30528, bias=False)
1:       )
1:       (seq_relationship): Linear(in_features=1024, out_features=2, bias=True)
1:     )
1:   )
1: )
0: :::MLLOG {"namespace": "", "time_ms": 1745770778643, "event_type": "POINT_IN_TIME", "key": "weights_initialization", "value": null, "metadata": {"file": "/workspace/bert/run_pretraining.py", "lineno": 954, "tensor": "bert/encoder/layer_0/attention/self/value/bias"}}
4: BertForPreTrainingSegmented(
4:   (bert_model_segment): BertForPreTrainingModelOnly(
4:     (bert): BertModel(
4:       (embeddings): BertEmbeddings(
4:         (word_embeddings): Embedding(30528, 1024)
4:         (position_embeddings): Embedding(512, 1024)
4:         (token_type_embeddings): Embedding(2, 1024)
4:         (LayerNorm): FastLayerNorm()
4:         (dropout): Dropout(p=0.1, inplace=False)
4:       )
4:       (encoder): BertEncoder(
4:         (layer): ModuleList(
4:           (0-23): 24 x BertTransformerLayer2(
4:             (attention): FP8_MHA()
4:             (layernorm_mlp): LayerNormMLP()
4:             (output_LayerNorm): FastLayerNorm()
4:           )
4:         )
4:       )
4:       (pooler): BertPooler(
4:         (dense): Linear(in_features=1024, out_features=1024, bias=True)
4:         (activation): Tanh()
4:       )
4:     )
4:   )
4:   (heads_only_segment): BertForPreTrainingHeadsOnly(
4:     (cls): BertPreTrainingHeads(
4:       (predictions): BertLMPredictionHead(
4:         (transform): BertPredictionHeadTransform(
4:           (dense): Linear(in_features=1024, out_features=1024, bias=True)
4:           (LayerNorm): FastLayerNorm()
4:         )
4:         (decoder): Linear(in_features=1024, out_features=30528, bias=False)
4:       )
4:       (seq_relationship): Linear(in_features=1024, out_features=2, bias=True)
4:     )
4:   )
4: )
5: BertForPreTrainingSegmented(
5:   (bert_model_segment): BertForPreTrainingModelOnly(
5:     (bert): BertModel(
5:       (embeddings): BertEmbeddings(
5:         (word_embeddings): Embedding(30528, 1024)
5:         (position_embeddings): Embedding(512, 1024)
5:         (token_type_embeddings): Embedding(2, 1024)
5:         (LayerNorm): FastLayerNorm()
5:         (dropout): Dropout(p=0.1, inplace=False)
5:       )
5:       (encoder): BertEncoder(
5:         (layer): ModuleList(
5:           (0-23): 24 x BertTransformerLayer2(
5:             (attention): FP8_MHA()
5:             (layernorm_mlp): LayerNormMLP()
5:             (output_LayerNorm): FastLayerNorm()
5:           )
5:         )
5:       )
5:       (pooler): BertPooler(
5:         (dense): Linear(in_features=1024, out_features=1024, bias=True)
5:         (activation): Tanh()
5:       )
5:     )
5:   )
5:   (heads_only_segment): BertForPreTrainingHeadsOnly(
5:     (cls): BertPreTrainingHeads(
5:       (predictions): BertLMPredictionHead(
5:         (transform): BertPredictionHeadTransform(
5:           (dense): Linear(in_features=1024, out_features=1024, bias=True)
5:           (LayerNorm): FastLayerNorm()
5:         )
5:         (decoder): Linear(in_features=1024, out_features=30528, bias=False)
5:       )
5:       (seq_relationship): Linear(in_features=1024, out_features=2, bias=True)
5:     )
5:   )
5: )
0: :::MLLOG {"namespace": "", "time_ms": 1745770778643, "event_type": "POINT_IN_TIME", "key": "weights_initialization", "value": null, "metadata": {"file": "/workspace/bert/run_pretraining.py", "lineno": 954, "tensor": "bert/encoder/layer_0/attention/output/dense/kernel"}}
0: :::MLLOG {"namespace": "", "time_ms": 1745770778643, "event_type": "POINT_IN_TIME", "key": "weights_initialization", "value": null, "metadata": {"file": "/workspace/bert/run_pretraining.py", "lineno": 954, "tensor": "bert/encoder/layer_0/attention/output/dense/bias"}}
…
