…
6: /usr/local/lib/python3.12/dist-packages/transformer_engine/common/recipe/__init__.py:153: DeprecationWarning: `interval` argument is deprecated and unused. It will be removed in an upcoming release.
6:   warnings.warn(
0: /usr/local/lib/python3.12/dist-packages/transformer_engine/common/recipe/__init__.py:153: DeprecationWarning: `interval` argument is deprecated and unused. It will be removed in an upcoming release.
0:   warnings.warn(
5: BertForPreTrainingSegmented(
5:   (bert_model_segment): BertForPreTrainingModelOnly(
5:     (bert): BertModel(
5:       (embeddings): BertEmbeddings(
5:         (word_embeddings): Embedding(30528, 1024)
5:         (position_embeddings): Embedding(512, 1024)
5:         (token_type_embeddings): Embedding(2, 1024)
5:         (LayerNorm): FastLayerNorm()
5:         (dropout): Dropout(p=0.1, inplace=False)
5:       )
5:       (encoder): BertEncoder(
5:         (layer): ModuleList(
5:           (0-23): 24 x BertTransformerLayer2(
5:             (attention): FP8_MHA()
5:             (layernorm_mlp): LayerNormMLP()
5:             (output_LayerNorm): FastLayerNorm()
5:           )
5:         )
5:       )
5:       (pooler): BertPooler(
5:         (dense): Linear(in_features=1024, out_features=1024, bias=True)
5:         (activation): Tanh()
5:       )
5:     )
5:   )
5:   (heads_only_segment): BertForPreTrainingHeadsOnly(
5:     (cls): BertPreTrainingHeads(
5:       (predictions): BertLMPredictionHead(
5:         (transform): BertPredictionHeadTransform(
5:           (dense): Linear(in_features=1024, out_features=1024, bias=True)
5:           (LayerNorm): FastLayerNorm()
5:         )
5:         (decoder): Linear(in_features=1024, out_features=30528, bias=False)
5:       )
5:       (seq_relationship): Linear(in_features=1024, out_features=2, bias=True)
5:     )
5:   )
5: )
0: :::MLLOG {"namespace": "", "time_ms": 1745768760564, "event_type": "POINT_IN_TIME", "key": "weights_initialization", "value": null, "metadata": {"file": "/workspace/bert/run_pretraining.py", "lineno": 954, "tensor": "bert/embeddings/word_embeddings"}}
0: :::MLLOG {"namespace": "", "time_ms": 1745768760565, "event_type": "POINT_IN_TIME", "key": "weights_initialization", "value": null, "metadata": {"file": "/workspace/bert/run_pretraining.py", "lineno": 954, "tensor": "bert/embeddings/position_embeddings"}}
…
0: :::MLLOG {"namespace": "", "time_ms": 1745768760565, "event_type": "POINT_IN_TIME", "key": "weights_initialization", "value": null, "metadata": {"file": "/workspace/bert/run_pretraining.py", "lineno": 954, "tensor": "bert/encoder/layer_0/attention/self/key/bias"}}
0: :::MLLOG {"namespace": "", "time_ms": 1745768760565, "event_type": "POINT_IN_TIME", "key": "weights_initialization", "value": null, "metadata": {"file": "/workspace/bert/run_pretraining.py", "lineno": 954, "tensor": "bert/encoder/layer_0/attention/self/value/kernel"}}
6: BertForPreTrainingSegmented(
6:   (bert_model_segment): BertForPreTrainingModelOnly(
6:     (bert): BertModel(
6:       (embeddings): BertEmbeddings(
6:         (word_embeddings): Embedding(30528, 1024)
6:         (position_embeddings): Embedding(512, 1024)
6:         (token_type_embeddings): Embedding(2, 1024)
6:         (LayerNorm): FastLayerNorm()
6:         (dropout): Dropout(p=0.1, inplace=False)
6:       )
6:       (encoder): BertEncoder(
6:         (layer): ModuleList(
6:           (0-23): 24 x BertTransformerLayer2(
6:             (attention): FP8_MHA()
6:             (layernorm_mlp): LayerNormMLP()
6:             (output_LayerNorm): FastLayerNorm()
6:           )
6:         )
6:       )
6:       (pooler): BertPooler(
6:         (dense): Linear(in_features=1024, out_features=1024, bias=True)
6:         (activation): Tanh()
6:       )
6:     )
6:   )
6:   (heads_only_segment): BertForPreTrainingHeadsOnly(
6:     (cls): BertPreTrainingHeads(
6:       (predictions): BertLMPredictionHead(
6:         (transform): BertPredictionHeadTransform(
6:           (dense): Linear(in_features=1024, out_features=1024, bias=True)
6:           (LayerNorm): FastLayerNorm()
6:         )
6:         (decoder): Linear(in_features=1024, out_features=30528, bias=False)
6:       )
6:       (seq_relationship): Linear(in_features=1024, out_features=2, bias=True)
6:     )
6:   )
6: )
1: BertForPreTrainingSegmented(
1:   (bert_model_segment): BertForPreTrainingModelOnly(
1:     (bert): BertModel(
1:       (embeddings): BertEmbeddings(
1:         (word_embeddings): Embedding(30528, 1024)
1:         (position_embeddings): Embedding(512, 1024)
1:         (token_type_embeddings): Embedding(2, 1024)
1:         (LayerNorm): FastLayerNorm()
1:         (dropout): Dropout(p=0.1, inplace=False)
1:       )
1:       (encoder): BertEncoder(
1:         (layer): ModuleList(
1:           (0-23): 24 x BertTransformerLayer2(
1:             (attention): FP8_MHA()
1:             (layernorm_mlp): LayerNormMLP()
1:             (output_LayerNorm): FastLayerNorm()
1:           )
1:         )
1:       )
1:       (pooler): BertPooler(
1:         (dense): Linear(in_features=1024, out_features=1024, bias=True)
1:         (activation): Tanh()
1:       )
1:     )
1:   )
1:   (heads_only_segment): BertForPreTrainingHeadsOnly(
1:     (cls): BertPreTrainingHeads(
1:       (predictions): BertLMPredictionHead(
1:         (transform): BertPredictionHeadTransform(
1:           (dense): Linear(in_features=1024, out_features=1024, bias=True)
1:           (LayerNorm): FastLayerNorm()
1:         )
1:         (decoder): Linear(in_features=1024, out_features=30528, bias=False)
1:       )
1:       (seq_relationship): Linear(in_features=1024, out_features=2, bias=True)
1:     )
1:   )
1: )
2: BertForPreTrainingSegmented(
2:   (bert_model_segment): BertForPreTrainingModelOnly(
2:     (bert): BertModel(
2:       (embeddings): BertEmbeddings(
2:         (word_embeddings): Embedding(30528, 1024)
2:         (position_embeddings): Embedding(512, 1024)
2:         (token_type_embeddings): Embedding(2, 1024)
2:         (LayerNorm): FastLayerNorm()
2:         (dropout): Dropout(p=0.1, inplace=False)
2:       )
2:       (encoder): BertEncoder(
2:         (layer): ModuleList(
2:           (0-23): 24 x BertTransformerLayer2(
2:             (attention): FP8_MHA()
2:             (layernorm_mlp): LayerNormMLP()
2:             (output_LayerNorm): FastLayerNorm()
2:           )
2:         )
2:       )
2:       (pooler): BertPooler(
2:         (dense): Linear(in_features=1024, out_features=1024, bias=True)
2:         (activation): Tanh()
2:       )
2:     )
2:   )
2:   (heads_only_segment): BertForPreTrainingHeadsOnly(
2:     (cls): BertPreTrainingHeads(
2:       (predictions): BertLMPredictionHead(
2:         (transform): BertPredictionHeadTransform(
2:           (dense): Linear(in_features=1024, out_features=1024, bias=True)
2:           (LayerNorm): FastLayerNorm()
2:         )
2:         (decoder): Linear(in_features=1024, out_features=30528, bias=False)
2:       )
2:       (seq_relationship): Linear(in_features=1024, out_features=2, bias=True)
2:     )
2:   )
2: )
0: :::MLLOG {"namespace": "", "time_ms": 1745768760565, "event_type": "POINT_IN_TIME", "key": "weights_initialization", "value": null, "metadata": {"file": "/workspace/bert/run_pretraining.py", "lineno": 954, "tensor": "bert/encoder/layer_0/attention/self/value/bias"}}
0: :::MLLOG {"namespace": "", "time_ms": 1745768760565, "event_type": "POINT_IN_TIME", "key": "weights_initialization", "value": null, "metadata": {"file": "/workspace/bert/run_pretraining.py", "lineno": 954, "tensor": "bert/encoder/layer_0/attention/output/dense/kernel"}}
…
